INFO:root:Using: cuda:7
INFO:root:Using seed 42.
INFO:root:Dataset: wisconsin
INFO:root:Num classes: 5
INFO:root:NCModel(
  (manifold): Lorentz manifold
  (encoder): HKPNet(
    (manifold): Lorentz manifold
    (linear_before): LorentzLinear(
      (manifold): Lorentz manifold
      (weight): Linear(in_features=1704, out_features=32, bias=True)
      (dropout): Dropout(p=0.2, inplace=False)
    )
    (layers): Sequential(
      (0): KPGraphConvolution(
        (net): KernelPointAggregation(
          (manifold): Lorentz manifold
          (linears): ModuleList(
            (0): LorentzLinear(
              (manifold): Lorentz manifold
              (weight): Linear(in_features=32, out_features=32, bias=True)
              (dropout): Dropout(p=0.2, inplace=False)
            )
            (1): LorentzLinear(
              (manifold): Lorentz manifold
              (weight): Linear(in_features=32, out_features=32, bias=True)
              (dropout): Dropout(p=0.2, inplace=False)
            )
            (2): LorentzLinear(
              (manifold): Lorentz manifold
              (weight): Linear(in_features=32, out_features=32, bias=True)
              (dropout): Dropout(p=0.2, inplace=False)
            )
            (3): LorentzLinear(
              (manifold): Lorentz manifold
              (weight): Linear(in_features=32, out_features=32, bias=True)
              (dropout): Dropout(p=0.2, inplace=False)
            )
          )
          (MLP_f): LMLP(
            (linear1): LorentzLinear(
              (manifold): Lorentz manifold
              (weight): Linear(in_features=32, out_features=64, bias=True)
              (dropout): Dropout(p=0.2, inplace=False)
            )
            (linear2): LorentzLinear(
              (manifold): Lorentz manifold
              (weight): Linear(in_features=64, out_features=64, bias=True)
              (dropout): Dropout(p=0.2, inplace=False)
            )
          )
          (MLP_fi): LMLP(
            (linear1): LorentzLinear(
              (manifold): Lorentz manifold
              (weight): Linear(in_features=64, out_features=32, bias=True)
              (dropout): Dropout(p=0.2, inplace=False)
            )
            (linear2): LorentzLinear(
              (manifold): Lorentz manifold
              (weight): Linear(in_features=32, out_features=32, bias=True)
              (dropout): Dropout(p=0.2, inplace=False)
            )
          )
        )
      )
      (1): KPGraphConvolution(
        (net): KernelPointAggregation(
          (manifold): Lorentz manifold
          (linears): ModuleList(
            (0): LorentzLinear(
              (manifold): Lorentz manifold
              (weight): Linear(in_features=32, out_features=32, bias=True)
              (dropout): Dropout(p=0.2, inplace=False)
            )
            (1): LorentzLinear(
              (manifold): Lorentz manifold
              (weight): Linear(in_features=32, out_features=32, bias=True)
              (dropout): Dropout(p=0.2, inplace=False)
            )
            (2): LorentzLinear(
              (manifold): Lorentz manifold
              (weight): Linear(in_features=32, out_features=32, bias=True)
              (dropout): Dropout(p=0.2, inplace=False)
            )
            (3): LorentzLinear(
              (manifold): Lorentz manifold
              (weight): Linear(in_features=32, out_features=32, bias=True)
              (dropout): Dropout(p=0.2, inplace=False)
            )
          )
          (MLP_f): LMLP(
            (linear1): LorentzLinear(
              (manifold): Lorentz manifold
              (weight): Linear(in_features=32, out_features=64, bias=True)
              (dropout): Dropout(p=0.2, inplace=False)
            )
            (linear2): LorentzLinear(
              (manifold): Lorentz manifold
              (weight): Linear(in_features=64, out_features=64, bias=True)
              (dropout): Dropout(p=0.2, inplace=False)
            )
          )
          (MLP_fi): LMLP(
            (linear1): LorentzLinear(
              (manifold): Lorentz manifold
              (weight): Linear(in_features=64, out_features=32, bias=True)
              (dropout): Dropout(p=0.2, inplace=False)
            )
            (linear2): LorentzLinear(
              (manifold): Lorentz manifold
              (weight): Linear(in_features=32, out_features=32, bias=True)
              (dropout): Dropout(p=0.2, inplace=False)
            )
          )
        )
      )
    )
  )
  (decoder): LorentzDecoder(
    (manifold): Lorentz manifold
  )
)
INFO:root:Total number of parameters: 82265.0
INFO:root:Epoch: 0010 lr: [0.001, 0.001] train_loss: 1.317865 train_acc: 0.528662 train_f1: 0.528662 time: 0.0914s
INFO:root:Epoch: 0010 val_loss: 1.195590 val_acc: 0.574074 val_f1: 0.574074
…
